…
/home/arne/softcon/models/dinov2/layers/swiglu_ffn.py:43: UserWarning: xFormers is available (SwiGLU)
  warnings.warn("xFormers is available (SwiGLU)")
/home/arne/softcon/models/dinov2/layers/attention.py:27: UserWarning: xFormers is available (Attention)
  warnings.warn("xFormers is available (Attention)")
/home/arne/softcon/models/dinov2/layers/block.py:33: UserWarning: xFormers is available (Block)
  warnings.warn("xFormers is available (Block)")
2025-06-16 18:50:43,378 INFO using MLP layer as FFN
2025-06-16 18:50:44,608 INFO using MLP layer as FFN
Sequential(
  (0): LoRA_ViT_timm(
    (lora_vit): DinoVisionTransformer(
      (patch_embed): PatchEmbed(
        (proj): Conv2d(13, 768, kernel_size=(14, 14), stride=(14, 14))
        (norm): Identity()
      )
      (blocks): ModuleList(
        (0-11): 12 x NestedTensorBlock(
          (norm1): LayerNorm((768,), eps=1e-06, elementwise_affine=True)
          (attn): MemEffAttention(
            (qkv): _LoRA_qkv_timm(
              (qkv): Linear(in_features=768, out_features=2304, bias=True)
              (linear_a_q): Linear(in_features=768, out_features=4, bias=False)
              (linear_b_q): Linear(in_features=4, out_features=768, bias=False)
              (linear_a_v): Linear(in_features=768, out_features=4, bias=False)
              (linear_b_v): Linear(in_features=4, out_features=768, bias=False)
            )
            (attn_drop): Dropout(p=0.0, inplace=False)
            (proj): Linear(in_features=768, out_features=768, bias=True)
            (proj_drop): Dropout(p=0.0, inplace=False)
          )
          (ls1): LayerScale()
          (drop_path1): Identity()
          (norm2): LayerNorm((768,), eps=1e-06, elementwise_affine=True)
          (mlp): Mlp(
            (fc1): Linear(in_features=768, out_features=3072, bias=True)
            (act): GELU(approximate='none')
            (fc2): Linear(in_features=3072, out_features=768, bias=True)
            (drop): Dropout(p=0.0, inplace=False)
          )
          (ls2): LayerScale()
          (drop_path2): Identity()
        )
      )
      (norm): LayerNorm((768,), eps=1e-06, elementwise_affine=True)
      (head): Identity()
    )
  )
  (1): Linear(in_features=768, out_features=19, bias=True)
)
Number of trainable parameters (w/ LoRA): 162067
[96m[INFO]    Loading BEN data for train...[0m
[96m[INFO]        237871 patches indexed[0m
[96m[INFO]        4000 pre-filtered patches indexed[0m
[96m[INFO]        4000 filtered patches indexed[0m
[96m[INFO]    Merged metadata with snow/cloud metadata[0m
[96m[INFO]    Loaded 549488 labels[0m
…
